…
2025-06-12 23:29:16 - __main__ - INFO - Dimensiones de entrada al modelo (C, T, H, W): (1, 16, 128, 128)
2025-06-12 23:29:16 - __main__ - INFO - Dimensiones tras self.features (antes de adaptive_pool): torch.Size([1, 64, 1, 8, 8])
2025-06-12 23:29:16 - __main__ - INFO - Despu茅s de adaptive_pool, las dimensiones espaciales/temporales se reducen a (1,1,1).
2025-06-12 23:29:16 - __main__ - INFO - N煤mero de caracter铆sticas para la capa lineal (FC): 64
2025-06-12 23:29:16 - __main__ - INFO - Arquitectura del modelo:
2025-06-12 23:29:16 - __main__ - INFO - SimpleCNN3D(
  (features): Sequential(
    (0): Conv3d(1, 32, kernel_size=(3, 3, 3), stride=(1, 1, 1), padding=(1, 1, 1))
    (1): BatchNorm3d(32, eps=1e-05, momentum=0.1, affine=True, track_running_stats=True)
    (2): ReLU()
    (3): Dropout3d(p=0.2, inplace=False)
    (4): MaxPool3d(kernel_size=(2, 2, 2), stride=2, padding=0, dilation=1, ceil_mode=False)
    (5): Conv3d(32, 64, kernel_size=(3, 3, 3), stride=(1, 1, 1), padding=(1, 1, 1))
    (6): BatchNorm3d(64, eps=1e-05, momentum=0.1, affine=True, track_running_stats=True)
    (7): ReLU()
    (8): Dropout3d(p=0.3, inplace=False)
    (9): MaxPool3d(kernel_size=(2, 2, 2), stride=2, padding=0, dilation=1, ceil_mode=False)
    (10): Conv3d(64, 128, kernel_size=(3, 3, 3), stride=(1, 1, 1), padding=(1, 1, 1))
    (11): BatchNorm3d(128, eps=1e-05, momentum=0.1, affine=True, track_running_stats=True)
    (12): ReLU()
    (13): Dropout3d(p=0.4, inplace=False)
    (14): MaxPool3d(kernel_size=(2, 2, 2), stride=2, padding=0, dilation=1, ceil_mode=False)
    (15): Conv3d(128, 64, kernel_size=(3, 3, 3), stride=(1, 1, 1), padding=(1, 1, 1))
    (16): BatchNorm3d(64, eps=1e-05, momentum=0.1, affine=True, track_running_stats=True)
    (17): ReLU()
    (18): Dropout3d(p=0.5, inplace=False)
    (19): MaxPool3d(kernel_size=(2, 2, 2), stride=2, padding=0, dilation=1, ceil_mode=False)
  )
  (adaptive_pool): AdaptiveAvgPool3d(output_size=(1, 1, 1))
  (fc): Sequential(
    (0): Linear(in_features=64, out_features=1024, bias=True)
    (1): ReLU()
    (2): Dropout(p=0.5, inplace=False)
    (3): Linear(in_features=1024, out_features=4, bias=True)
  )
)
2025-06-12 23:29:16 - __main__ - INFO - Scheduler ReduceLROnPlateau activado: paciencia=5, factor=0.5, monitoreando val_loss.
2025-06-12 23:29:16 - __main__ - INFO - Iniciando nuevo entrenamiento desde 茅poca 1.
2025-06-12 23:29:16 - src.models.engine_training - INFO - Entrenamiento iniciado (model_CNN3D)... N煤mero de 茅pocas: 7 (desde 1 hasta 7)
2025-06-12 23:29:16 - src.models.engine_training - INFO - Se guardar谩n los checkpoints en: 'models\CNN3D\20250612-232916'
…
2025-06-14 00:03:57 - __main__ - INFO - Dimensiones de entrada al modelo (C, T, H, W): (1, 16, 128, 128)
2025-06-14 00:03:57 - __main__ - INFO - Dimensiones tras self.features (antes de adaptive_pool): torch.Size([1, 64, 2, 16, 16])
2025-06-14 00:03:57 - __main__ - INFO - Despu茅s de adaptive_pool, las dimensiones espaciales/temporales se reducen a (1,1,1).
2025-06-14 00:03:57 - __main__ - INFO - N煤mero de caracter铆sticas para la capa lineal (FC): 64
2025-06-14 00:03:57 - __main__ - INFO - Arquitectura del modelo:
2025-06-14 00:03:57 - __main__ - INFO - SimpleCNN3D(
  (features): Sequential(
    (0): Conv3d(1, 32, kernel_size=(3, 3, 3), stride=(1, 1, 1), padding=(1, 1, 1))
    (1): BatchNorm3d(32, eps=1e-05, momentum=0.1, affine=True, track_running_stats=True)
    (2): ReLU()
    (3): MaxPool3d(kernel_size=(2, 2, 2), stride=2, padding=0, dilation=1, ceil_mode=False)
    (4): Conv3d(32, 128, kernel_size=(3, 3, 3), stride=(1, 1, 1), padding=(1, 1, 1))
    (5): BatchNorm3d(128, eps=1e-05, momentum=0.1, affine=True, track_running_stats=True)
    (6): ReLU()
    (7): MaxPool3d(kernel_size=(2, 2, 2), stride=2, padding=0, dilation=1, ceil_mode=False)
    (8): Conv3d(128, 64, kernel_size=(3, 3, 3), stride=(1, 1, 1), padding=(1, 1, 1))
    (9): BatchNorm3d(64, eps=1e-05, momentum=0.1, affine=True, track_running_stats=True)
    (10): ReLU()
    (11): MaxPool3d(kernel_size=(2, 2, 2), stride=2, padding=0, dilation=1, ceil_mode=False)
  )
  (adaptive_pool): AdaptiveAvgPool3d(output_size=(1, 1, 1))
  (fc): Sequential(
    (0): Linear(in_features=64, out_features=16, bias=True)
    (1): ReLU()
    (2): Dropout(p=0.3, inplace=False)
    (3): Linear(in_features=16, out_features=4, bias=True)
  )
)
2025-06-14 00:03:57 - __main__ - INFO - Scheduler ReduceLROnPlateau activado: paciencia=5, factor=0.5, monitoreando val_loss.
2025-06-14 00:03:57 - __main__ - INFO - Iniciando nuevo entrenamiento desde 茅poca 1.
2025-06-14 00:03:57 - src.models.engine_training - INFO - Entrenamiento iniciado (model_CNN3D)... N煤mero de 茅pocas: 1 (desde 1 hasta 1)
2025-06-14 00:03:57 - src.models.engine_training - INFO - Se guardar谩n los checkpoints en: 'models\CNN3D\20250614-000357'
…
2025-06-14 00:39:12 - __main__ - INFO - Dimensiones de entrada al modelo (C, T, H, W): (1, 16, 128, 128)
2025-06-14 00:39:12 - __main__ - INFO - Dimensiones tras self.features (antes de adaptive_pool): torch.Size([1, 32, 2, 16, 16])
2025-06-14 00:39:12 - __main__ - INFO - Despu茅s de adaptive_pool, las dimensiones espaciales/temporales se reducen a (1,1,1).
2025-06-14 00:39:12 - __main__ - INFO - N煤mero de caracter铆sticas para la capa lineal (FC): 32
2025-06-14 00:39:12 - __main__ - INFO - Arquitectura del modelo:
2025-06-14 00:39:12 - __main__ - INFO - SimpleCNN3D(
  (features): Sequential(
    (0): Conv3d(1, 32, kernel_size=(3, 3, 3), stride=(1, 1, 1), padding=(1, 1, 1))
    (1): BatchNorm3d(32, eps=1e-05, momentum=0.1, affine=True, track_running_stats=True)
    (2): ReLU()
    (3): MaxPool3d(kernel_size=(2, 2, 2), stride=2, padding=0, dilation=1, ceil_mode=False)
    (4): Conv3d(32, 64, kernel_size=(3, 3, 3), stride=(1, 1, 1), padding=(1, 1, 1))
    (5): BatchNorm3d(64, eps=1e-05, momentum=0.1, affine=True, track_running_stats=True)
    (6): ReLU()
    (7): MaxPool3d(kernel_size=(2, 2, 2), stride=2, padding=0, dilation=1, ceil_mode=False)
    (8): Conv3d(64, 32, kernel_size=(3, 3, 3), stride=(1, 1, 1), padding=(1, 1, 1))
    (9): BatchNorm3d(32, eps=1e-05, momentum=0.1, affine=True, track_running_stats=True)
    (10): ReLU()
    (11): MaxPool3d(kernel_size=(2, 2, 2), stride=2, padding=0, dilation=1, ceil_mode=False)
  )
  (adaptive_pool): AdaptiveAvgPool3d(output_size=(1, 1, 1))
  (fc): Sequential(
    (0): Linear(in_features=32, out_features=16, bias=True)
    (1): ReLU()
    (2): Dropout(p=0.3, inplace=False)
    (3): Linear(in_features=16, out_features=4, bias=True)
  )
)
2025-06-14 00:39:12 - __main__ - INFO - Scheduler ReduceLROnPlateau activado: paciencia=1, factor=0.5, monitoreando val_loss.
2025-06-14 00:39:12 - __main__ - INFO - Iniciando nuevo entrenamiento desde 茅poca 1.
2025-06-14 00:39:12 - src.models.engine_training - INFO - Entrenamiento iniciado (model_CNN3D)... N煤mero de 茅pocas: 4 (desde 1 hasta 4)
2025-06-14 00:39:12 - src.models.engine_training - INFO - Se guardar谩n los checkpoints en: 'models\CNN3D\20250614-003912'
…
